models/tmp.pth (torch_old, 773288 bytes, 34 tensors)

embeds.0.weight f4 [139, 25]
00000000: 63c2 0c3c 5db3 1e3c 423c e73b f860 30bc
00000010: 9ecd a23c dc89 193c d7e4 493c 5ecc 933a
00000020: d960 51bc b8fd 613b e5d4 34bb f785 acbb
00000030: 829b 8b3b d6e8 97bb b5ce 033c 4d2d 3abb
00000040: 57b7 f73b 57f5 37bc ae25 24bc 0ade 6b3a
00000050: ed89 bf3b eea9 f0ba 9bef 59bb e97a 76bb
00000060: 9bb2 a23b 932d f33b 353b 853c 4ef3 b7bb
00000070: c20f 9e3c 850d b93b 7354 593c dc92 a83b
00000080: 7ee1 46ba 14cc 7abc 5233 033a efb2 d93b
00000090: afa6 763b aeaf f139 449a 36bb 2fbc 243b
000000a0: 1e4a 70bc 0444 8bbb cf19 6cbc 4b76 ec39
000000b0: 0091 01ba d4c7 893c 5628 91bb 7087 913b
000000c0: 0259 4a3c a3d6 7f3c 7c8a 213b 0029 bdbb
000000d0: 9b7c 9bbb 4ede 17bc b48b 403c 93e7 58bc
000000e0: d021 81bc d49e 04bc 11f9 16bb 422d 64bb
000000f0: 6fbb aabb 24bf e43a deb3 1f3a b825 c8b9
00000100: 1316 8a3c ed64 90bc 93d1 973b 8eaa 283c
00000110: d83d a0bb 04db 063b 470d 513c 579d 8fbb
00000120: eb53 35bb f336 d2b9 8c82 dc3b 4771 473c
00000130: e269 64bb 188e d9bb c76a 92bc 0e50 5a39
00000140: 8ba7 cb3b 1dad 213c 652c 4fbc a9ad d03b
00000150: b19c 0cbc 72fb e93a 0033 6eba ee4a 6cbc
00000160: 6424 3d3b fbfb 85bb 7947 17bc 1a30 01bc
00000170: 6680 7cbb 497b 4abb 44d0 1cbc 0eba 45bb
00000180: 6b72 97bb 66d6 3bbc d904 12bc c279 8bbc
00000190: fbcb 01bc 52ce 5fbb b200 02bc e1f9 623b
000001a0: c54b 9dba 3d54 6abc 0754 ba3a 4e17 4cbc
000001b0: d0b8 f73b 4782 a03b dc03 38bc c5c6 2e3c
000001c0: 8a25 57bb 7248 2f3c ad8f 973c 4c77 ef3b
000001d0: 1ba3 ba3b 5bfd 45bc a194 ec3b e7b4 75bc
000001e0: 3068 693c a2cb 893a 24c3 b2ba 029f 00bb
000001f0: 5377 abbb 90c0 9b3c f35f 913b 0f53 06bc
00000200: f425 453b 8f5c 673c 74c2 8bbb 7b71 f539
00000210: eb7b f3bb 99c3 34bc eb6b f6bb a8ec 153c
00000220: 1fc2 8e3c 7f0a 8d3b 4068 1ebb f46d a83b
00000230: c586 2a3c d7f3 3d3c e358 7c3c 29de 2a3b
00000240: 4ee0 b83b 80b2 d6bb d597 7bbc 888c 9e3a
00000250: 2e86 4b3a 7e0f 21bb 99a9 8bbb 40ad 893b
00000260: 7e9d b3bb ae5b b7ba 6e34 d0bb 9209 203c
00000270: 64f1 a6bb 4110 763b eed9 3b3c 44b2 b3bb
00000280: 35ef edba a7d1 9fba 11cc 873c 4337 223b
00000290: 0941 143b 6789 f73a f2b8 53bb 3358 003c
000002a0: 0a28 473a 2dd6 8cba 8934 53bc f60e abba
000002b0: 06fe 5f3c 951c 85bc 052e 833b 41cd dbbb
000002c0: 8164 583c 8fc9 4dba 3e68 46bc 3cc0 72ba
000002d0: d588 e23b fb37 543b b45a fd3b a940 11ba
000002e0: 179d 9dbc 84af 533b 17c7 e1bb 7076 07bc
000002f0: b63d 2a3c fe7d c33b 5b22 a5bb d555 edbb
00000300: cd5b 8bbc 662a 673a 6efb 9b3c ecd1 75bc
00000310: d5f3 083c 7961 333c 7446 0c3c 8bb9 45b9
00000320: 2167 003c ac46 7fbb fdfd 5f3b 075b 9dbb
00000330: 90b4 fbba 6a23 beb7 4d10 90bc 8704 8d3b
00000340: 929d 16bc aa00 f0bb becc 843c 199b 63bc
00000350: 98d9 e2ba 8f69 3cbc 4898 003c 8f43 fb3b
00000360: 72bb d2b9 2761 e83b 7ba0 a53a 4f07 8f3b
00000370: 3364 f639 3cb7 f23a 2cea 5cbb d0ca 75bb
00000380: 9816 373b 973d e7bb 0c2b ea3b 7c9e 0c3c
00000390: 4a9b 4ebb 7de8 b53b cd9c 373b 3db7 4e3b
000003a0: 70db f7bb 5d49 1fbc 2a71 a13b c969 7bbc
000003b0: 2d19 b23a 157d 18bc 8133 383c 706a 863b
000003c0: 55fa 4abb 3cd8 02bc 426d 7f3b 4edc 13ba
000003d0: b7f4 233c 6a55 cd3b cfbb 7ebc a9be 18bb
000003e0: aa60 373c 785d 1bbc f6d4 21ba 69b9 e03b
000003f0: b596 bebb e79c 58bc a9ca b5bb d349 593b
0.008591267 0.009686318 0.007056744 -0.010765307 0.019873437 0.009371247 0.012322626 0.0011276116
-0.012779438 0.0034483504 -0.0027592715 -0.0052649933 0.0042604813 -0.0046359105 0.008044888 -0.002840835
0.0075596976 -0.011227927 -0.010018749 0.0008997625 0.0058452995 -0.001836119 -0.0033254388 -0.0037609881
0.004965139 0.0074212044 0.016263584 -0.005613721 0.019294623 0.0056473636 0.013264763 0.00514446
-0.00075867015 -0.015307445 0.0005004901 0.006643645 0.0037635972 0.00046097994 -0.0027862946 0.002513658
-0.014666108 -0.0042500515 -0.01441045 0.00045101563 -0.0004942566 0.016818918 -0.0044298572 0.0044411942
0.012350323 0.015615138 0.0024649194 -0.00577271 -0.0047450787 -0.00926931 0.011752058 -0.013238805
-0.015763193 -0.008094508 -0.0023036639 -0.0034817015 -0.005210332 0.0017451984 0.0006092171 -0.00038175075
0.016856229 -0.01762625 0.0046331375 0.01029457 -0.004890185 0.002057732 0.012759513 -0.00438277
-0.0027668427 -0.00040095262 0.0067294296 0.0121730035 -0.003485315 -0.0066392533 -0.017873181 0.00020819923
0.006215041 0.009867934 -0.012644862 0.006368358 -0.00858228 0.0017851426 -0.0009086579 -0.0144221615
0.0028860802 -0.0040888763 -0.009233349 -0.007885003 -0.003852868 -0.0030896238 -0.009571139 -0.0030170712
-0.004621794 -0.011464691 -0.008912289 -0.017025832 -0.007922168 -0.0034150076 -0.007934736 0.0034633803
-0.001200073 -0.0143023105 0.0014215716 -0.012456728 0.007559873 0.004898343 -0.011231389 0.010667508
-0.0032828772 0.010698425 0.018501127 0.0073079225 0.005695713 -0.01208433 0.0072198664 -0.014996744
0.014246032 0.0010512958 -0.0013638479 -0.0019626026 -0.0052327304 0.01901272 0.004436487 -0.008198514
0.0030082436 0.014121189 -0.004265124 0.0004681459 -0.0074305437 -0.011032962 -0.007520189 0.0091506615
0.017426549 0.0043042297 -0.0024171025 0.0051400606 0.010408108 0.0115937805 0.015402052 0.002607236
0.0056419736 -0.0065520406 -0.015356024 0.0012096325 0.000776383 -0.0024575884 -0.004262161 0.004201561
-0.005481421 -0.0013989115 -0.0063539064 0.009767907 -0.005094694 0.003754631 0.011465533 -0.0054838974
-0.0018152954 -0.0012193219 0.016576799 0.0024752177 0.0022621772 0.0018885554 -0.003230628 0.007833528
0.0007597214 -0.0010744982 -0.012890943 -0.0013050723 0.013671404 -0.01624898 0.0040032887 -0.006707818
0.013207556 -0.0007850164 -0.012109814 -0.00092602125 0.0069132843 0.0032382 0.00773176 -0.0005540946
-0.019239945 0.003230066 -0.0068901884 -0.008267984 0.01039069 0.005965947 -0.005039496 -0.007242898
-0.017011547 0.00088182685 0.01904079 -0.015003663 0.008358915 0.010948532 0.008561719 -0.00018856504
0.007837088 -0.0038952036 0.0034178488 -0.004802111 -0.0019203592 -2.2666256e-05 -0.017585898 0.004303518
-0.009192841 -0.007324298 0.01621091 -0.013891959 -0.001730728 -0.0114997765 0.007848807 0.0076679657
-0.0004019398 0.0070916596 0.0012636328 0.004364885 0.0004699543 0.0018517743 -0.0033708913 -0.003750492
0.002793705 -0.0070569026 0.007146245 0.0085827075 -0.0031525665 0.0055513964 0.0028017045 0.0031542324
-0.007564001 -0.009722081 0.0049268203 -0.015345045 0.0013587825 -0.009307166 0.011242748 0.004102044
-0.0030971963 -0.007986125 0.0038975035 -0.0005640433 0.010007075 0.0062662857 -0.015547707 -0.0023307002
0.01119248 -0.009482734 -0.0006173396 0.00685804 -0.0058163055 -0.013221002 -0.0055478406 0.0033155575

embeds.1.weight f4 [139, 25]
00000000: c070 39bc 0ece 29b9 73aa d8bb 0e3d 463c
00000010: a9d5 1cbb a587 cd3b ae56 1abc 0e1e 1abb
00000020: 0a32 3fbc ad7e b93b 7b7e 0f3c aa6f 503a
00000030: 2bfb 67bc 0640 15bc 5bc9 8bba 1183 81bc
00000040: c064 f6bb 27e7 5dbc 6409 26bb 55e7 5fba
00000050: 186d 3e3a f266 e03a 7db5 4e3c c209 333b
00000060: 1def e63b b361 493b 3e88 a13b 2722 af3b
00000070: 8c74 f13b a1e4 2cbc 6e00 e03b 0a93 513b
00000080: e912 d0bb e0ec 403c e766 0a3c b9b5 17bc
00000090: 7d5e eb3b 4825 8d3b a795 f53b 6adb f03b
000000a0: affb 6d3b 865d 8dbc 57f9 a1b9 4e35 ddba
000000b0: d9c3 a2bc eb07 d03a 3771 dcbb 45ad 533b
000000c0: b34f 4f3c b8f4 edba 93e4 f1bb a536 a33c
000000d0: ccab 103c 2f50 5b3c 3358 62bb f244 453c
000000e0: f89e f3bb f585 bc3b d76c a4ba dc11 c339
000000f0: d3ea ce3b 92b5 90bc f42f af3b 0ac0 f23b
00000100: bd00 fcbb b2e1 78bc 545d 7c3b 1ee4 00bc
00000110: 843b 0ebb cfca 943b a501 9f3c 9cd2 873b
00000120: acf8 efbb 58ae 02ba 669e cab9 4f61 ea3b
00000130: 16c9 283c 5683 83bc 897c 75bc 2ba4 04bc
00000140: 6df2 053c 01dd 1a3c 873f 84ba 3268 9d3b
00000150: 9929 bbbb 2b55 933c 50f4 edbb 76ef 89bc
00000160: 64ff a13b 55fb c0ba a092 563c d218 603a
00000170: e951 863b 6eac 87bb 6a06 ecbb cdb4 8cb9
00000180: 6bd5 8fbb 2d34 c83b e134 8d3a 7315 edbb
00000190: 2494 67bb 09fe 213c 40bd 893a a948 1f3b
000001a0: f9d3 d13b 6f93 dabb 96b2 19ba 92f3 40bc
000001b0: b4b5 b4bb 4e67 cbbb 1d40 07bb 7178 823b
000001c0: f2b2 4d3c b792 89bb f2c4 403c d2ea e13b
000001d0: 6408 893b f36d 2cbc d335 5f3c 076e 403b
000001e0: a2c7 593b c3ab 8a3c 90b8 9839 aec3 653b
000001f0: f9ef ac3b 0f96 a1b9 44bf 213c 27e8 623b
00000200: 5d67 1f3b 9cd6 8f3b 6ebe 613b 26cb 1c3c
00000210: efe4 d73b dbec 8e3c efd5 97ba b577 973b
00000220: 7c43 4f3c fb30 d43b 5865 743c 9dc2 8c3b
00000230: 2d97 bf3a 798a a1bb e79a 4bbc a7eb 883b
00000240: 6a4d f23a a968 4a3b 7c1d 3039 82cb b8bb
00000250: d4e0 74bb 0006 86bb a240 153c 37e6 98ba
00000260: 042f a23b 349b c53b 5a1b a23b 7761 2e3c
00000270: 846d 1ebc 8f9e 74bc b049 bd3b 5903 17bb
00000280: 6153 283b 10b9 70bb b73a 7abc 99f0 193c
00000290: 2f4f 9b3a 9eb7 19bb 4690 aa3a ea8b 543c
000002a0: 988f 7c3b 08bd 153c 8998 dfbb e48d 58bc
000002b0: f81a 6b3c 93ff 4bbb 257f 2a3c 2448 dcbb
000002c0: 97ba 753c abf8 a33a 9c1b 9bbb ddc5 abbb
000002d0: c63c c63b 008b 09bb 90af 1cbb 0a5b de3a
000002e0: 0f39 0dbb 10b2 9bbb d14b 003c 296a a03c
000002f0: 4185 323c 6911 f13a 3723 8c3c 9679 82bb
00000300: 98ef 55bc bbe8 d1bb 7b0b 11bb 1958 e53b
00000310: 4504 953b 5911 52bc b0b9 86bc 27e5 90bb
00000320: 4b6d 0b3c 2588 78bc d066 45bc 47a1 dabb
00000330: 6a3c 57bc 14f5 44bc 619e 37bc 9d38 ecbb
00000340: e78c 013c 6982 6c3c 1958 0f3c d9f9 cd3b
00000350: 257c d1bb ad85 393c 3c00 27ba eb0c 65bc
00000360: 8057 6e3b c056 863c 2d13 19bb 5280 203c
00000370: 6cbb 9fbb c5cf d83b 2669 64bb 5742 cbba
00000380: 6acd f33b 2fae 143c 8ea9 25bc 9fc4 233b
00000390: 6f85 57bc 33d3 d13a 78e8 f6bb 7587 56b7
000003a0: 7562 4dbb 7727 f8ba 30da 48ba 5924 18bc
000003b0: 0a29 fbba 0fd9 c9ba 0d94 02bc 07f4 64bc
000003c0: 02ac e9bb 00dd 57bb 795c 1f3c 39f1 063c
000003d0: ab75 24bb f4a1 533b 2612 ff3b 2973 deba
000003e0: 1b28 08bc 3890 183c c76d 9f3b b7da a4bb
000003f0: 4653 943b dcc4 813b 83d3 f23b af3e d53b
-0.011318386 -0.00016193857 -0.006612116 0.0120995175 -0.0023931062 0.0062722736 -0.00942008 -0.002351645
-0.011669645 0.005660853 0.008758183 0.00079512096 -0.014159004 -0.009109503 -0.0010664867 -0.015809568
-0.0075193346 -0.013543881 -0.0025335187 -0.0008541246 0.0007264181 0.0017120524 0.012616512 0.0027319049
0.0070475475 0.00307284 0.0049295714 0.0053446474 0.00736863 -0.010552556 0.0068359887 0.0031978511
-0.0063499105 0.011775225 0.008447385 -0.009259635 0.0071828947 0.004307423 0.0074946466 0.007350375
0.0036313345 -0.01725651 -0.00030894086 -0.0016876848 -0.019868778 0.00158715 -0.0067273634 0.0032299322
0.012653279 -0.0018154597 -0.0073819845 0.019923517 0.008830022 0.0133858165 -0.0034537434 0.012040364
-0.007434722 0.0057532736 -0.0012544644 0.00037206605 0.0063146143 -0.017664704 0.0053462926 0.0074081467
-0.0076905177 -0.015190529 0.0038507776 -0.007866887 -0.0021702955 0.004540778 0.019409964 0.0041449796
-0.007323345 -0.00049850857 -0.00038646458 0.0071527134 0.010301849 -0.016053837 -0.014983305 -0.008095781
0.008175475 0.0094521055 -0.0010089733 0.004803681 -0.005711746 0.017984947 -0.0072617903 -0.016837817
0.004943775 -0.001472334 0.013096482 0.00085486204 0.00409912 -0.0041404283 -0.007202913 -0.00026837588
-0.004389455 0.0061097355 0.0010773205 -0.007235223 -0.0035336101 0.009887227 0.0010508671 0.0024304783
0.006403443 -0.0066704075 -0.0005863098 -0.011776822 -0.0055148248 -0.0062073832 -0.002063758 0.003981643
0.012554871 -0.004198398 0.011765705 0.006894448 0.0041819084 -0.010524261 0.013623673 0.0029362456
0.0033230563 0.016927605 0.0002912921 0.003505926 0.0052776304 -0.00030820115 0.009872261 0.0034623237
0.0024323084 0.004389597 0.003444578 0.009569919 0.0065885703 0.017446926 -0.0011584143 0.0046224245
0.012650367 0.0064755655 0.01491674 0.0042956606 0.0014617197 -0.0049298373 -0.012427068 0.0041784826
0.0018486206 0.0030885136 0.00016795652 -0.0056394944 -0.0037365453 -0.0040900707 0.009109648 -0.0011665289
0.0049494524 0.0060304645 0.004947108 0.010643355 -0.009669665 -0.014930381 0.0057766065 -0.0023042767
0.0025684463 -0.00367314 -0.015272788 0.009395742 0.001184916 -0.0023455392 0.0013012968 0.012972811
0.0038537737 0.009139307 -0.0068236035 -0.013217423 0.014349692 -0.0031127676 0.01040629 -0.006722467
0.0149981 0.0012510022 -0.004733516 -0.005242093 0.006049725 -0.0020987391 -0.0023908354 0.0016964388
-0.0021548902 -0.0047514513 0.007830576 0.019581871 0.010896028 0.001839203 0.017106635 -0.0039817793
-0.013057612 -0.0064059175 -0.0022132087 0.0069990274 0.004547628 -0.012821519 -0.016445965 -0.0044218483
0.008509944 -0.015169178 -0.012048438 -0.006672058 -0.013136962 -0.012021322 -0.011207194 -0.0072088973
0.007907129 0.014435389 0.008749031 0.0062858877 -0.006392973 0.011323375 -0.00063705794 -0.013980131
0.0036368072 0.016398787 -0.0023357377 0.009796219 -0.0048746374 0.006616565 -0.0034852712 -0.0015507442
0.0074402587 0.009074732 -0.010111226 0.0024989021 -0.013154372 0.0016008377 -0.0075350367 -1.27869325e-05
-0.0031339203 -0.001893266 -0.0007661907 -0.00928601 -0.0019162011 -0.0015399772 -0.007969868 -0.013974196
-0.0071311006 -0.0032938123 0.009726637 0.008236223 -0.002509455 0.0032292577 0.007784146 -0.0016971576
-0.008310343 0.009311728 0.0048653814 -0.0050309557 0.0045265285 0.003960235 0.007410468 0.0065077166

embeds.2.weight f4 [139, 25]
00000000: a5f1 35bc c754 deba 4485 903a 3485 713a
00000010: d72c 963a 1e01 dd3b f78c 493c d977 b13a
00000020: 3d4a d3bb b5ea 20bc c45b 2fbb f000 0a3c
00000030: 42d0 8337 504b 973b d34f 033c f31a b8bb
00000040: 4a76 33bc b4f1 ccba 7110 043c ee26 19bc
00000050: 6595 77bb ca50 263c b282 e4bb da99 133c
00000060: e928 c63b b027 2f3c 0565 ff3b fd36 49bb
00000070: d4c6 903b e073 a63b ac54 71bc 1b0b c43b
00000080: 85dc 7a3c 00b2 2f3c de04 51ba f9d0 27bc
00000090: 0d1d 80bc 9f76 1f3b 61c0 a0bb 9bef 863c
000000a0: 75b7 473c b32f a53b 1dc9 df3b c640 f1bb
000000b0: d28f 30bc 99b8 80bb a71b 083c 9ef5 16bb
000000c0: 1e9d 3abc 6964 043c 46cf 053c 1056 123c
000000d0: 85a1 cc3b 27d6 e339 29e2 163b f234 ae39
000000e0: 7b08 583b eb43 f2bb e6b0 1cbc a758 523c
000000f0: 9ddf 2cbb d334 6b3c 1943 003c f5df 3bbb
00000100: 8fd4 ec3a b2db 53ba ad87 b13a a4de 05bb
00000110: 9ef1 403c baca 9c3c 61db 5039 79ac 553b
00000120: d75f 793c 103c f63b 2739 33bb 9827 483b
00000130: 81b6 6e3c 935e 113b d7e3 4bbb 0da1 853c
00000140: 799a 223c af8f aa3b a6a5 6bbb 365f 9f3c
00000150: eee7 cb3b cda6 c4bb 2d54 8fbb d744 10bb
00000160: 3681 803c 336b c8ba 8e58 32bc a0e4 813b
00000170: ecbc 17bc 3072 bfb6 13e9 58bc fc32 123b
00000180: 47e4 c63b 785c 7ebc f208 f0ba 58ac 18bb
00000190: 283f 8b3c e0ed 343c 10b5 313c 706f 4639
000001a0: 7ca8 d6bb 903b 493b ccc4 52ba 1b9c 5e3b
000001b0: f546 9b3a f445 7e3a fbac 04bc c61a bdbb
000001c0: 7589 32bc d60f 8f3b 8f67 aa3b 83d5 0b3c
000001d0: 3583 183c 7a87 14bb 0428 afb9 be06 9b3c
000001e0: 26d5 a03a e41b 3aba e0cf 913c 8b8f 553c
000001f0: a6fd 5f3c 22bb ca3a c6f4 d73b 331f 443b
00000200: 3ac7 033b 60a3 c8bb 307f b7bb 8aec 2fbb
00000210: 7e4c 1e3c d199 0a3c c943 2abc e84a 9d3a
00000220: 6614 1cbb 1e3a 9abb f529 3cbc e650 053a
00000230: a789 e33a b972 ddbb c152 c73b 7342 443c
00000240: 5df6 26bb 5378 86bb c749 7cbc 6614 3f3b
00000250: 6f0b 50ba 292c 573b d029 e5bb 146c 9d3a
00000260: 9979 89b8 db32 c8bb b877 ec3a 9917 113c
00000270: 0f4d d439 1cf1 17bc abae 373c e36f 98ba
00000280: acb3 043c b2c9 093b 3743 0a39 26db 543a
00000290: b285 083c af96 0f3b 3311 51bb 79b4 b7bb
000002a0: dd22 49bc 53e9 543c 61df 08bc 4249 303b
000002b0: c947 8c3c 94a6 233b 5421 56bb 6768 383c
000002c0: 5be6 0e3c c4af 503b 49b0 ba3b 8456 23bc
000002d0: cfde f0b9 9daf 6bbb 0ad7 8839 0063 5dbc
000002e0: fc2f 7bbb 67ab 743b 7253 7939 f5fb e93a
000002f0: ee92 c5bb dd57 60bc 0af2 e6bb 6032 903b
00000300: 9c37 c4b9 eff8 013c 79d9 31bc 7964 e2bb
00000310: 38d9 043b 5cf0 13bb dc43 cdbb 21ed a8bb
00000320: b870 1fbc 1f90 143b 5940 c4bb 2968 8a3a
00000330: 4470 8dbc cdae 0dbc a737 11bc 47d9 093b
00000340: 76b5 1b3c d3a3 403c bee2 173c 6f2e 123b
00000350: d315 31bc be0c ccbb a1f6 e43b daee 0a3a
00000360: a314 9dbc 68c4 93bb 6e3f 493b 5d26 883c
00000370: 95ee f2ba bb1f 02bc bc9c 83bb e8b3 a33b
00000380: a48c dd3a 590e d6bb 1be9 0e3b c613 6f3b
00000390: 9205 0abc fb12 25bb 793b 7b3c 92e9 aabb
000003a0: 274d 9cbc 63b8 f6bb 0cca 953b 8f8d 86bb
000003b0: 62cc 863c e706 f4bb 5c67 30bc e9b2 f93b
000003c0: 52e0 9cb9 6c0f 5dbc 2010 a13c bd8b dbbb
000003d0: 411c b6bb 525f 713b 190a 94bb 4ac7 34bb
000003e0: 7dc2 18bc 82d0 643b 2064 f2ba d493 b138
000003f0: a951 2ebb a7e3 16b8 408c 93bb 4bf1 113c
-0.011104976 -0.0016962521 0.0011026044 0.0009213269 0.0011457455 0.006744518 0.012301675 0.0013539746
-0.006448059 -0.0098215835 -0.0026757577 0.008423075 1.5713395e-05 0.0046171322 0.008014637 -0.005618447
-0.010953495 -0.0015635998 0.008060561 -0.0093476605 -0.0037778255 0.010151098 -0.006973588 0.009008849
0.0060473573 0.010690615 0.007794025 -0.0030702942 0.0044182334 0.0050797313 -0.01472966 0.005982769
0.015311365 0.010723591 -0.00079734426 -0.010242694 -0.015638852 0.0024332178 -0.004905746 0.016471675
0.012189736 0.0050410866 0.0068293945 -0.007362458 -0.010776477 -0.0039282558 0.008307374 -0.0023034583
-0.011389999 0.00808058 0.008167094 0.008931652 0.0062448406 0.0004345637 0.0023022986 0.00033227314
0.003296404 -0.0073933504 -0.00956366 0.012838519 -0.00263784 0.014355856 0.007828497 -0.0028667424
0.0018068718 -0.00080817484 0.0013544463 -0.0020426894 0.011776356 0.019139636 0.00019918151 0.0032604022
0.015220604 0.007514484 -0.0027347298 0.0030541178 0.0145698795 0.0022181615 -0.0031111145 0.016312147
0.009924524 0.0052051167 -0.0035956888 0.01945458 0.0062227165 -0.0060013295 -0.004374048 -0.0022013688
0.015686613 -0.0015290737 -0.010885371 0.003964022 -0.009261351 -5.7055368e-06 -0.013239163 0.002230822
0.0060696932 -0.015524976 -0.0018313213 -0.0023296084 0.016997889 0.011043042 0.010846391 0.00018924265
-0.0065508466 0.0030705668 -0.0008040189 0.0033967558 0.0011846708 0.0009699755 -0.008097882 -0.005771014
-0.01089703 0.0043659015 0.0052003334 0.008534792 0.009308626 -0.0022663758 -0.00033408415 0.018924113
0.0012270554 -0.0007099493 0.017799318 0.013034712 0.013671314 0.0015467147 0.0065904586 0.0029925823
0.0020107762 -0.0061229914 -0.0055998787 -0.002684387 0.009661792 0.008459524 -0.010392138 0.0012000473
-0.002381587 -0.004706635 -0.011484613 0.0005085602 0.0017359749 -0.006758061 0.006082863 0.011978733
-0.0025476434 -0.0041036992 -0.015398449 0.0029156446 -0.0007936274 0.0032832718 -0.00699351 0.0012010359
-6.5553184e-05 -0.006109578 0.001804105 0.008855724 0.00040493204 -0.009273794 0.011211078 -0.0011630025
0.008099478 0.002102476 0.00013185745 0.0008119814 0.008332657 0.0021909883 -0.003190112 -0.005606231
-0.012276378 0.012995082 -0.008354039 0.0026899134 0.017124074 0.0024971114 -0.0032673674 0.01125536
0.008721913 0.0031843046 0.0056972844 -0.009969357 -0.00045942373 -0.0035962828 0.00026100158 -0.013512373
-0.0038328161 0.003733361 0.00023777576 0.0017851578 -0.0060294783 -0.013692823 -0.0070478963 0.0044005364
-0.00037425465 0.007932886 -0.010855072 -0.00690895 0.0020271074 -0.0022573685 -0.006264193 -0.005155221
-0.009731464 0.002266891 -0.005989116 0.0010559607 -0.017265446 -0.008647633 -0.008863366 0.0021034048
0.009503713 0.011757809 0.009270368 0.0022305509 -0.010808426 -0.006227105 0.0069874083 0.0005299874
-0.01917488 -0.0045094974 0.0030707973 0.016619856 -0.0018534238 -0.007942135 -0.004016487 0.0049958117
0.0016902876 -0.006532472 0.0021806422 0.0036480292 -0.00842418 -0.0025188315 0.015334004 -0.005215832
-0.019079758 -0.007529305 0.004571205 -0.0041062306 0.01645488 -0.007447112 -0.01076683 0.0076202047
-0.0002992177 -0.013492446 0.01966101 -0.0067000077 -0.0055575673 0.0036830497 -0.0045178053 -0.0027584606
-0.009323713 0.003491432 -0.0018492974 8.467553e-05 -0.0026598966 -3.5974805e-05 -0.004502803 0.008907626

embeds.3.weight f4 [139, 25]
00000000: 2fec 1f3a b633 273c a04c aabb 4e3f a1bb
00000010: 6ef0 8eb9 f4f3 e1ba db10 873a 6145 283c
00000020: f7d5 e03b 2ee1 20bc e77a 5abc 8b4a 0fba
00000030: a911 793b b424 4abc 9c31 91bc 54af 393c
00000040: 03db 683b a6f1 b33a 58c4 d33b 2b1c 033c
00000050: fa74 893a 1324 f83b b0ca 0abc f443 2a3c
00000060: 78c3 d2bb 2115 b3ba 8443 d8bb 070a 7abc
00000070: f941 3d3a 7054 753b 1763 57bc bdd6 93bb
00000080: 4ee0 343b 0098 143c 1963 803b 65e5 e53a
00000090: c688 853b 3600 99ba 39b1 db3b 4461 b9bb
000000a0: dcab e53b ad78 29bb 2193 a43b 41e5 55bb
000000b0: e692 7f3b f41a 033b a4bf 90bb e442 913a
000000c0: ec34 d33a 78ba 00bc ef6b 083c 4c20 5dbc
000000d0: 4fd5 bc3b c0b6 2f3c fdd9 58bc f23d b93b
000000e0: ebb9 a9bb d264 653c 6894 1d3c 4fb5 f2ba
000000f0: a16f 72bb b5d8 02bc 2e0d 3b3b 2270 a13b
00000100: 7d7d c43b 26d5 713b 8ec8 25bc 581d c33b
00000110: 2313 0cbc 0020 e838 3328 d83a 8568 36bc
00000120: 35a9 cfba 5954 ec3b 4459 26bb 5b8e 2e3c
00000130: a18e 5f3c 23f6 f039 e1b6 c33a 8d49 18bb
00000140: 7b8b 143b b71c 2e3c 3756 4f3c 5232 7cbc
00000150: b477 eb3b 197b 743b 964c 033c 50fa 2fbc
00000160: 98b1 093b 3617 0c3b 4b70 1bbc c064 693b
00000170: b927 54bc 4ffd 5ebc 1221 a2bc a2e7 1e3c
00000180: d7a6 9139 1963 85bc 904b 9fbc cc62 5fbb
00000190: 7b63 6bbc dd57 45bb cef2 b6bb 3e06 b23b
000001a0: bcee 53bc 144b 73bc 4eec 17bb 38d2 f2ba
000001b0: 8986 7fba 01b9 8239 4b9c 02bc 99df 0bbb
000001c0: eb3c 383b 1cd3 443c e5a0 5d3a 2f51 febb
000001d0: ee0f 47bb 73e5 82ba 1959 1b3c 34ac 383b
000001e0: c1cf 573c b4bd f3bb f538 e13a d9d3 233b
000001f0: 610d 45bb b83c 673a 6f1b 613c 64ba cd3b
00000200: 8bac 2e3b ea9b b239 89af b9bb 98b0 f3bb
00000210: eb0a ecb9 0239 83ba c64e 4dbb 349f ba3a
00000220: e15a 1c39 11e7 1cbc 6ebe 1dbc 2ddb 12bc
00000230: 7bf7 ee39 d87f 8e3c d2e0 5cbc 06f6 ad3b
00000240: 4a16 753c ef65 22bb 7381 673b 2f43 9a3a
00000250: 5c17 433a 86e8 733c 2cc8 dabb f984 2d3c
00000260: 1938 623c 778b 3a3c c558 233c 12f9 4aba
00000270: b029 abbb beb1 c03a c63d 24bc afd5 123c
00000280: 0534 febb 94f9 1dbc ea52 61bb a788 d23b
00000290: 6c0b 683c 17eb 84bb b0e4 1fbc 4a4c e7ba
000002a0: 7d93 c2bb bd83 853c a972 1abb f61c 27bc
000002b0: f51d ffb8 ae45 4fbb 2ee6 f23b 4a52 c83b
000002c0: 6aed ea3b ca77 54bb f284 fbbb 008a 4b3b
000002d0: 2725 383c feb5 ed3b 2ceb 57bc 7d31 3abc
000002e0: af13 a13b c6e4 e13b 4991 2fbc c5a1 0abc
000002f0: 20a5 1dbb a054 e83b 2dd9 c3bb 9de9 c3bb
00000300: b2b1 b4ba 4160 59bb 00d0 fbb9 cdde 24bc
00000310: 52fd abbb b2ee 983b 58f2 f0bb 090b b0ba
00000320: adea 95bb 6d63 c5bb 9354 ba3b 6717 fcbb
00000330: 7d58 233c 9ded e5bb 5303 57bc 3808 33bc
00000340: c968 573a 0160 f3b9 f002 22bc e060 1d3c
00000350: 3b48 243b 9cf7 ad3a 4e65 1e3b 986e 31bc
00000360: 7268 66bb bd0e a03b 4016 9a3c 4217 163b
00000370: 6f98 90bb dff5 8a3c 1b01 813a b5c5 34bb
00000380: 0f6b 503b 43a4 863c ebd6 edbb 0fef 913c
00000390: 4076 7c3c b4dc 5239 3d9a 143b 8ea9 ec3b
000003a0: e4d5 863c 6f3d 1bbc 154b 773b 2b11 553c
000003b0: 8be4 f8bb e58e 43bb 93ba 26bc cbb1 9dbb
000003c0: 9d70 8b3c 4e33 b1bb ee7c 233c 1b08 2c3c
000003d0: 62c8 53bc 7216 7abb 9c31 ffbb fe53 b63a
000003e0: 10c0 1bbc e7e5 2c3c b03b 083c 2211 533c
000003f0: e112 373a 226c f33b 3f3b 803a 4bf4 5c3c
0.0006100563 0.0102052 -0.0051971227 -0.0049208766 -0.00027263485 -0.0017238841 0.0010304706 0.0102704475
0.006861444 -0.009819312 -0.013334966 -0.0005466125 0.003800491 -0.012337852 -0.01772385 0.011333305
0.0035530932 0.0013728633 0.006462615 0.008002321 0.0010487132 0.0075726598 -0.008471176 0.010392178
-0.006431993 -0.0013662913 -0.0065998454 -0.01526118 0.00072196085 0.0037434362 -0.013146183 -0.004511683
0.0027599516 0.009069443 0.0039180634 0.0017539678 0.0040751426 -0.0011673036 0.006704476 -0.005657347
0.0070090126 -0.0025859282 0.005022422 -0.0032637867 0.003899747 0.002000508 -0.0044173766 0.0011082557
0.0016113794 -0.007856958 0.008326515 -0.01349647 0.005762733 0.010724723 -0.013235566 0.0056531364
-0.005179634 0.014001088 0.009617902 -0.0018517169 -0.0036992806 -0.007986237 0.0028541791 0.0049266974
0.0059964047 0.0036900728 -0.010118617 0.005954426 -0.008549484 0.000110685825 0.0016491472 -0.011133318
-0.0015843274 0.0072122035 -0.0025382796 0.010654057 0.013644845 0.00045959753 0.0014931821 -0.00232372
0.0022666145 0.010626963 0.012654833 -0.015392857 0.0071859006 0.0037304817 0.008013865 -0.0107408315
0.0021010395 0.002137614 -0.009487222 0.003561303 -0.012948924 -0.013610198 -0.01979116 0.00969878
0.0002778086 -0.016282605 -0.01944521 -0.0034085987 -0.01436698 -0.0030112185 -0.005583144 0.005432873
-0.012935337 -0.014849443 -0.002318162 -0.0018525785 -0.00097475253 0.0002493337 -0.007971833 -0.0021342991
0.0028112482 0.012013223 0.0008454456 -0.0077611427 -0.0030374485 -0.0009986594 0.009481692 0.0028178813
0.013172091 -0.007438386 0.0017183112 0.0024998097 -0.003006779 0.00088209985 0.013739451 0.006278323
0.0026653137 0.0003406697 -0.0056666774 -0.007436823 -0.00045021562 -0.0010011496 -0.003132747 0.001423812
0.00014911174 -0.009576575 -0.0096279215 -0.008963388 0.00045579285 0.017394945 -0.013481336 0.0053088693
0.014958927 -0.0024779995 0.003532496 0.001176929 0.00074421405 0.014886981 -0.0066766944 0.010590785
0.01380732 0.01138579 0.009969895 -0.0007742803 -0.0052234754 0.0014701409 -0.010024494 0.008962079
-0.007757666 -0.009642024 -0.0034381696 0.0064249816 0.014162879 -0.004056345 -0.009759113 -0.0017646637
-0.005937992 0.01629817 -0.0023566878 -0.010199776 -0.000121649275 -0.0031627226 0.0074126935 0.0061133252
0.0071694152 -0.0032420033 -0.0076757604 0.0031057596 0.011239327 0.007254361 -0.013178628 -0.011364338
0.0049156765 0.006893727 -0.010715791 -0.00846142 -0.002405472 0.007090166 -0.005976817 -0.0059787766
-0.0013785867 -0.0033168944 -0.00048029423 -0.0100628855 -0.005248704 0.0046671266 -0.0073531084 -0.0013431023
-0.0045750947 -0.0060238154 0.0056863516 -0.0076932195 0.009969828 -0.007016851 -0.013123351 -0.0109272525
0.00082172133 -0.000464201 -0.009888396 0.009605616 0.0025067467 0.0013272646 0.002416927 -0.01082959
-0.003515747 0.0048845694 0.018809438 0.0022902046 -0.0044127028 0.016962944 0.0009842248 -0.0027583663
0.0031802093 0.016435748 -0.0072582862 0.017814187 0.015409052 0.00020109379 0.002267494 0.007222361
0.016459413 -0.009475096 0.0037733961 0.013004581 -0.007595604 -0.002983981 -0.010176319 -0.0048124543
0.017021472 -0.0054077273 0.009978516 0.010499979 -0.012926193 -0.003816035 -0.0077878963 0.001391053
-0.0095062405 0.01055286 0.008315012 0.012882503 0.0006983709 0.007428662 0.0009783282 0.013485978

embeds.4.weight f4 [139, 25]
00000000: e9b0 7fbc 99aa 41bb 9463 f83a 7f64 153b
00000010: e2a3 043b 6bbf a33b 8e36 3dbb 6bc7 74bb
00000020: ce76 55bb cbee c33a a05a acbb 602e f73b
00000030: d9f5 073c 505e eebb 3ac3 083b dda9 adba
00000040: 3dd4 d23b c43a 263b 3439 21bc 4611 0a3a
00000050: 4875 813c 22ba c93b 73b3 483a 0a53 8abb
00000060: f43e b13b fdcd 233c 6135 a7bb f0d8 a4ba
00000070: 0888 8c3b 6f24 9d3c 6c14 75bc 3968 0fbc
00000080: 855c 9f3a 0cb1 923c 4cc8 5c3c f216 39bb
00000090: ec9a 9bbc 561b 18ba 339b 2abc 1e56 603c
000000a0: e951 623c 0929 0fbc e579 633c 5694 0d3b
000000b0: b994 923c 993e 82bb 072e 553a 146e 8438
000000c0: 61d8 83bc 1b23 d0bb c218 703c d7b0 4b3c
000000d0: f906 21bb c99c e0bb 02bf 30bc 3402 583b
000000e0: 6b3b 8b3c 8215 db3a f5d6 85bc 4272 ddba
000000f0: 08d5 993a e900 2bbc ea14 39bc 4d89 a8bb
00000100: eb2b 8c3b 8426 de3b 0468 d4b9 1319 503b
00000110: c5bf 2c3c 05fb ca3b 2f42 fc3b 9c54 edbb
00000120: 2a52 a43b 441b de3b bb49 c03a e83b 803c
00000130: fe56 42bb 9e3f 1d3c f7a8 0fbc 4fd4 033b
00000140: e2ae 71bc e413 3fbc 4f2c 25bc 25b9 aebb
00000150: 5872 213c c263 60bc cbc1 73bc 4ac7 1a3b
00000160: 3eae 62bb 6b24 81bb 73d5 8b3b 0ad7 21ba
00000170: 969e 28bb b2d1 2d3c 54e4 9e3b c13f 9fba
00000180: f516 54bc 772f 45bb 2548 1f3c 9991 6b3b
00000190: 674f 953c c902 bdbb 0d25 89bb 3c65 6fbc
000001a0: 704e f23b d760 99ba 842b a13c e074 bfbb
000001b0: 455c 5f3c ef17 163b f2c9 b93b 5344 e43b
000001c0: e60b d93b e1ff d8bb bef8 013b 7d24 83bc
000001d0: 29fc be38 5bd7 6c3c 9992 583c 9692 083c
000001e0: 5743 10bc 61ce d4bb 9d39 eb3b 935c 7abb
000001f0: 971d 5bbb 251f c13b 53ef 29bc ee06 c2bb
00000200: 46f4 18bc 18f1 5fbc 4670 803c 0d8c 91bb
00000210: 9c16 36bc 50e6 263c 7c5d 95ba 2b26 513c
00000220: edf5 873b be5c 1dbb ebd5 a53b a7ad 023c
00000230: 7787 0ebc 5b12 c3bb 848e 19bb 19ab 873b
00000240: 71a0 98b8 0b95 063b fedd e33b 85fd 113b
00000250: ef17 2f3c 043f c43b 7d3b 9e3c 5894 6f3a
00000260: 2225 9c3a 8a37 cd3a ca74 923c 9665 8e3c
00000270: 9eda ab3b 23b8 713a 3e81 253c db41 01bc
00000280: 7326 6abc f5c7 b23b 17ff 573c 8fe1 5b3b
00000290: 4750 edbb 1055 8abb 0965 703a 9c4f f43b
000002a0: a5cd b7bb 9e07 223b 7750 c0bb e512 513a
000002b0: 4f55 1dbc ebf0 df3b 786c e0bb c94a 373c
000002c0: e79b 92ba d0f9 69bb 3291 fa3b 3811 56bb
000002d0: 8daa 41bc 8729 83ba a0cb 66bc 4a9f 743b
000002e0: 9424 cd3a 51e9 1abb bba6 34ba b2d6 413c
000002f0: ced6 433c 38fd 24bc 29a5 343c e625 873b
00000300: 4fed 403a 3363 553c 6f4b 013c 4355 6dba
00000310: 7ec3 503c e033 533b 0d9c 19bc 3bf4 553c
00000320: 7f40 103c 2bc6 933c 148e d2bb 76c0 9cb9
00000330: 05bc 19bb a47c 80bc 9bef fa3b 3dc1 2cbc
00000340: 5499 063c 200f 8c3b 964e 16bc 573f 5bbc
00000350: dd0e a9bb 6741 d63b f53f 78bc 0b09 cebb
00000360: f546 513b 5d5d 783b 3885 84bb 30fc 6f3b
00000370: 974f b2bb ceb5 2b3c 902c 14bc d77f 09bc
00000380: 7525 1cbb a24d c43b 4f07 a1bb 4a15 093c
00000390: 6ec9 883b 3e9f 9cbb 17b8 60bb 4234 33bc
000003a0: 4e34 c9bb a1c0 5bbb 8b49 103c 7961 d6ba
000003b0: 6f9d a7bb 156c a1bb 028a 263a 56e2 0ebc
000003c0: 066f 1ebb 7760 633c fced 053a 12f4 0ebb
000003d0: 0d82 39bc 3b94 f03b d3ef 40bc 3055 86bb
000003e0: e549 a33c 53af 35bc 9e8b 3d3a 303f 64bb
000003f0: 4f58 2f3c 2fb0 1abc c4b8 00bc 4161 ceba
-0.0156061435 -0.0029551147 0.0018950575 0.0022795496 0.0020239283 0.004997184 -0.0028871628 -0.0037350308
-0.0032572034 0.0014948485 -0.005259827 0.00754337 0.008298361 -0.0072744265 0.0020868317 -0.0013249476
0.006433992 0.0025364617 -0.009840298 0.0005266856 0.015802994 0.006156222 0.00076561345 -0.004221325
0.005409116 0.009997842 -0.005102799 -0.001257686 0.004288677 0.019182412 -0.014958482 -0.008752876
0.001215831 0.017906688 0.013475489 -0.0028242436 -0.018994771 -0.0005802413 -0.010412979 0.013692407
0.013813474 -0.008737811 0.013884042 0.0021603308 0.017893182 -0.0039747474 0.0008132164 6.314754e-05
-0.016094388 -0.006351841 0.01465434 0.012432299 -0.0024570806 -0.0068546277 -0.010787727 0.0032960298
0.016996106 0.0016714784 -0.016337851 -0.0016895013 0.0011736462 -0.010437229 -0.01129649 -0.0051433207
0.0042776964 0.0067794938 -0.0004051329 0.0031753227 0.010543768 0.0061944746 0.0076983194 -0.0072427522
0.0050146775 0.0067781527 0.0014670411 0.015653566 -0.0029653902 0.009597687 -0.008768312 0.002011556
-0.014751168 -0.011662457 -0.010081365 -0.0053321295 0.009853922 -0.013695659 -0.014877747 0.002361732
-0.003458872 -0.003941109 0.0042673885 -0.0006173706 -0.002572929 0.010609077 0.004848996 -0.0012149737
-0.0129449265 -0.0030088106 0.00972179 0.0035944937 0.018226339 -0.0057681543 -0.004185325 -0.0146115385
0.0073946044 -0.0011701834 0.01967407 -0.00584279 0.013632839 0.002290245 0.0056698257 0.0069661527
0.006623733 -0.0066223 0.00198321 -0.01600861 9.1068745e-05 0.014455642 0.013218545 0.00833573
-0.008805118 -0.006494329 0.007178499 -0.0038202151 -0.0033434385 0.0058936053 -0.010372001 -0.0059212362
-0.009335583 -0.013668321 0.015678536 -0.004441744 -0.011113789 0.010186747 -0.0011395658 0.012765448
0.0041491897 -0.0024011577 0.0050609014 0.007975972 -0.0086992895 -0.005953116 -0.0023430893 0.0041402695
-7.277809e-05 0.0020535614 0.0069539538 0.0022276354 0.010686859 0.0059889574 0.019315476 0.00091392314
0.0011912922 0.0015656811 0.017877955 0.017382424 0.005244567 0.0009220859 0.0101016145 -0.007889236
-0.014291394 0.0054559656 0.013183377 0.0033551191 -0.007242236 -0.004221566 0.0009170329 0.0074557792
-0.0056092315 0.0024723778 -0.005868967 0.0007975533 -0.009602859 0.0068341396 -0.006848868 0.011187264
-0.0011185379 -0.0035701878 0.007646703 -0.0032664072 -0.011820448 -0.0010006883 -0.014086634 0.003732639
0.001565116 -0.0023637603 -0.00068913 0.0118309725 0.011953069 -0.010070138 0.011025705 0.004124391
0.00073595805 0.013024139 0.00789152 -0.00090535375 0.0127419215 0.0032226965 -0.009375584 0.013058717
0.00880444 0.01803883 -0.0064256284 -0.00029898033 -0.0023458016 -0.015684433 0.0076579577 -0.0105441185
0.008215267 0.004274264 -0.00917401 -0.013381801 -0.0051592425 0.0065385583 -0.015151967 -0.006287699
0.0031933163 0.0037897446 -0.004044201 0.0036618821 -0.0054416168 0.010480357 -0.009043828 -0.008392296
-0.0023826037 0.0059907 -0.0049142013 0.008366892 0.004174403 -0.0047797253 -0.0034289414 -0.010937752
-0.0061402684 -0.0033531564 0.0088065965 -0.0016355953 -0.005115203 -0.0049262145 0.0006352962 -0.008720955
-0.0024175062 0.0138779795 0.000510901 -0.0021812958 -0.01132251 0.007341889 -0.011775929 -0.0040995106
0.019932697 -0.011089164 0.00072305824 -0.0034827702 0.010702207 -0.0094414195 -0.007856552 -0.0015745537

embeds.5.weight f4 [139, 25]
00000000: 9866 2b3b 1832 c538 c047 6cbc 0fdb bb3b
00000010: 794f 72bc 2c35 4ebc 230f 0fbc 5d71 403c
00000020: 50aa 75bb a866 863b 994d 07bb ee63 38ba
00000030: f5f9 4dbc a1ae edb7 811b 063c 1055 013c
00000040: 22f4 2cbb 604d 943a dfd6 923b a52f 55ba
00000050: 873a 49bc 0aad e6bb 0f25 553c e6d0 21bc
00000060: 7c4e 21bb 9b90 ce3b c105 23bc f292 9a3c
00000070: bd03 8abb 077e 1fbc cb67 fbba 0171 de3a
00000080: 854e 31bb cd61 1d3c 9d61 b83a 19de 0abc
00000090: 7c2b 183b 1c1d 493a 4fbb a4bb 01b4 dabb
000000a0: ad95 4cbb e188 9bba d2c9 013c 0164 ebbb
000000b0: 13cb 08bb 06e4 68bc e552 bb3a 5044 05bb
000000c0: bdd0 3e3c 020d aebb 8a89 d73b c525 91bb
000000d0: 0a8d 1a3c 3dcd 22bc 5d8e 833b 90bc 273b
000000e0: 6a4a f9bb 5760 1dbc 6033 ffbb 2c58 16bc
000000f0: a68f 243c 5847 4e3b 3811 27bb f97e 573a
00000100: 4ce0 59bb b3be ce3b f8d9 51bb 7dd3 60bb
00000110: 5ccd 39bc c269 53bc 0b52 dcba 2613 ff3b
00000120: 9615 213c c5b6 b93a 6e7e f8ba 9023 33bc
00000130: 8010 3d3c 4f15 133a c585 ef3b cb16 653c
00000140: c502 713c 8ed7 543c 024a 83bc d6b3 a9bb
00000150: d850 3abc c2bf 853b 30f0 6c3c ae9a cd3b
00000160: 300f 05bc 6f73 b53b ff5f a1bb 88d0 82ba
00000170: b446 fdbb e9f8 c9bb 935c 553b b974 14bc
00000180: c215 973a d074 093b 5275 d139 a773 ae3b
00000190: dddf 223c 8fd8 00bc e790 d23b badd 8cbb
000001a0: 4384 7d3b 4b15 aebb a2be 08bc df94 8a3c
000001b0: 9351 fc3b d6ce 953b 3597 4bba cba5 e23b
000001c0: 41e9 433c 50f0 993a a96f bdbb aae7 8a3c
000001d0: fc25 36bb a9ee b2bb 8890 093c bbcd 2ebc
000001e0: b66f 8ebb 8478 8bb9 6d23 81bc bc0a 03bc
000001f0: be59 e2bb 99fa 223a d739 323c 52b3 a23c
00000200: 408f 6f3b 8f4b 8b3a 1da1 8c3c 9563 bcbb
00000210: 860e 173b dcb8 b9ba 89fb bb3b 8aa0 f93b
00000220: 6444 513a ced9 47bc 9b88 7e3c fe99 3cbc
00000230: 546f 4ebc c266 d83b 30d3 38ba a101 86bb
00000240: a063 08bb d355 613c 3447 753c 6f11 f6b9
00000250: 4760 fdbb d7b1 323b a1bc f8bb 52c7 4a3b
00000260: 3f2d 9a39 0f6c 883b 7d67 02bc 2f54 673b
00000270: b72b 96bb 7761 f0bb 575d 713a b4fc 5abb
00000280: f5ef 363b 7715 22bc 26a7 9f3c fb6f 2a3b
00000290: 139d ebb9 b789 d33b 671a de39 90e8 c53a
000002a0: 624e 1c3c 5cda 7ebb a8dd 0b3a 004b 8fbb
000002b0: 5627 143c e216 b73a 5c6d 363c c0d1 2ebc
000002c0: 6376 fa3b 148e 7aba 40b1 77bb b9ae ed38
000002d0: c626 68bc 2eb5 4cbb 7917 adbb 4b64 84bc
000002e0: f066 c1bb 8280 a23b fbe0 3f3c 968a 1a3c
000002f0: ad4c 103c 9d3e bd3b f338 f63b 4736 e9bb
00000300: c966 23bb d877 a6bb 6bcd 8c3c dd69 ddba
00000310: cab4 41bb 68f4 013c 4732 52bb 59d7 53bc
00000320: 6099 25bc 254a 3d3c 9e58 23ba d097 293c
00000330: dd60 983b 47c5 95bb fe77 fe3b 2f51 e83b
00000340: dbdf 413b e2e8 233c 4544 333a e2c1 583a
00000350: df27 86bc e2b2 233c 07c2 9aba b0b9 2ebc
00000360: 7575 133c 4363 ff39 b868 733b 83bd 873c
00000370: 1ed2 abbb 8213 943c 36a8 b03b ef02 013c
00000380: 8656 b73b bd74 3cbc 0955 22ba 1516 6d3c
00000390: 7615 88ba 5434 10bb 73d1 813b 4494 2b3c
000003a0: 759d ba3b 8b56 24bc 9c3c 02bc 558d fe3a
000003b0: d74e c63b 0276 923c 3381 453b d70f a03b
000003c0: dd07 c23b 8912 183b 75da c53b 846d 96bc
000003d0: 2b22 583b 7c34 183c cb81 66bc d37f 413c
000003e0: 729f 9d3a 7636 a139 b8ca 76bb 328e 82bc
000003f0: a78a f6bb f742 17bc 4b37 acbb b4c7 4cbc
0.002615368 9.403023e-05 -0.014421403 0.005732901 -0.014789456 -0.012585919 -0.008731636 0.011745778
-0.0037485547 0.004101593 -0.0020645617 -0.00070339337 -0.012571801 -2.833392e-05 0.008185268 0.007893816
-0.0026390632 0.0011314563 0.004481181 -0.0008132405 -0.01228202 -0.007039671 0.013009324 -0.009876465
-0.002461343 0.0063038594 -0.009950102 0.018868897 -0.0042118714 -0.009734637 -0.0019180713 0.0016970934
-0.0027054858 0.009605837 0.0014067177 -0.008475804 0.0023219278 0.0007671879 -0.0050272117 -0.00667429
-0.0031217143 -0.0011866355 0.007921653 -0.0071835523 -0.0020872995 -0.014214521 0.0014291672 -0.0020334907
0.011646447 -0.0053116092 0.006577675 -0.0044295513 0.00943304 -0.009936628 0.0040147738 0.002559457
-0.007607748 -0.009605489 -0.007788107 -0.009176295 0.010044014 0.003147563 -0.002549244 0.00082205195
-0.0033245264 0.006309354 -0.0032020789 -0.0034305744 -0.011340465 -0.012903633 -0.0016809119 0.007784265
0.009831807 0.001416885 -0.0018958577 -0.010933772 0.011539578 0.000561078 0.0073096477 0.013982485
0.014710133 0.012990845 -0.0160265 -0.005178909 -0.011371814 0.004081697 0.014461562 0.006274543
-0.008121297 0.0055374424 -0.0049247737 -0.000998036 -0.0077293757 -0.0061637056 0.00325564 -0.009061032
0.001152687 0.0020974167 0.00039950997 0.0053238454 0.0099410685 -0.007864132 0.006425965 -0.004298893
0.003868357 -0.005312597 -0.008346232 0.01691669 0.007700154 0.004571776 -0.0007766367 0.0069167367
0.0119574675 0.0011744592 -0.005781133 0.01695617 -0.0027793637 -0.0054605794 0.008396275 -0.010669167
-0.004346813 -0.00026601937 -0.015763963 -0.007998165 -0.0069076708 0.00062171515 0.010878048 0.019860897
0.003655389 0.0010627377 0.017166669 -0.005749176 0.0023049428 -0.0014169472 0.0057367724 0.0076180147
0.0007982908 -0.012197925 0.015535499 -0.011511324 -0.012599785 0.0066040466 -0.00070505124 -0.0040895496
-0.0020811334 0.013753372 0.014970589 -0.00046933765 -0.0077324244 0.0027266645 -0.0075908457 0.0030941558
0.0002940688 0.004163272 -0.007959244 0.003529798 -0.004582848 -0.0073358375 0.0009207329 -0.0033414783
0.0027914022 -0.009892813 0.019488882 0.0026006687 -0.00044939722 0.006455626 0.0004236281 0.0015099216
0.009540172 -0.0038887477 0.00053354586 -0.0043729544 0.009042582 0.0013968612 0.011134472 -0.0106701255
0.0076435073 -0.00095579145 -0.0037794858 0.00011333585 -0.014169401 -0.0031235921 -0.005282339 -0.016161105
-0.0059021637 0.004959167 0.011711354 0.0094324555 0.008807343 0.0057752864 0.007514113 -0.007117066
-0.002493309 -0.0050802045 0.017187795 -0.0016892512 -0.0029557222 0.007931806 -0.0032073425 -0.012929761
-0.010107368 0.011553322 -0.00062311615 0.010351136 0.004650219 -0.0045706364 0.007765769 0.007089756
0.002958289 0.010004254 0.0006838481 0.0008268637 -0.016376434 0.009991379 -0.0011807092 -0.010664389
0.009000172 0.00048711346 0.0037141275 0.016569858 -0.005243554 0.018075708 0.005391146 0.007874235
0.005595031 -0.011502442 -0.0006192481 0.014470597 -0.0010382372 -0.0022003846 0.003961736 0.010472361
0.00569504 -0.010030399 -0.007949021 0.0019420782 0.006051879 0.017878536 0.0030136823 0.0048847008
0.0059213475 0.0023204407 0.006038005 -0.018362768 0.003297935 0.009289857 -0.014069031 0.011810261
0.0012025668 0.0003074889 -0.003765745 -0.015936945 -0.007523853 -0.009232274 -0.005255615 -0.012498785

embeds.6.weight f4 [139, 25]
00000000: 8446 21bc 2fd2 78ba ff86 093c f0f9 a0bc
00000010: 3ca0 a7ba 2f79 3abb e486 053c 70e1 5abb
00000020: 092e 34ba 79e0 993b 3d37 2f3b 8273 5e3b
00000030: 26fd 123c bca6 803a 8559 63bb 29b6 133c
00000040: 2daa c73b 6ff7 8c3b 2b89 003c d0b7 153c
00000050: 3db6 243c 5dc5 c8bb 6e2c 0cbb 2b11 39bc
00000060: 4881 1b3b 75c5 8fbc 7060 3a3c ead2 6cbb
00000070: 500b 82bc f427 3c3b 5087 6e3c 5486 8c39
00000080: 6c2c 133c c022 a93a e63b 0dbc a8d4 08bc
00000090: 4dac 90bc 7001 f7bb 7255 85bb e4ae d23a
000000a0: ba79 1ebb 540a 9a39 9759 f93b 80b9 11bb
000000b0: 41ca f63a 67a3 a9bb 2a3f 8e3b 6134 5a3c
000000c0: 2b0d 113c f370 113c 9f05 8cbb 9dcc 173c
000000d0: ab91 98bc 818d 5a3a b87e 7ab9 bde8 db3a
000000e0: ec6f 7fbc c47a 113b 3c00 0c3c cb1f 43b9
000000f0: c259 243b f97f 2c3c 3611 2cbc 87ba 6cbc
00000100: e718 7cbb 909c 173c 0464 1cbc 216b 3bbb
00000110: 53be 3b3c 3234 eebb 8d24 3a3b 423b e8ba
00000120: e28c 133c f4a5 a6bb b8ae 20b9 ba21 84bb
00000130: 4969 283c 5e5b 3b39 d44f 913b 1cab b63b
00000140: f0da eebb 0ea5 e73a 54ef 963c 0141 583c
00000150: c5e5 af3b 469c 1e3b 8de1 28bc e693 3a3c
00000160: b949 b13a 0fa0 24bc 4b98 3c3c d7b4 a3bb
00000170: ee8b 36bc 668a 1e3a 0672 06bc b90a 273c
00000180: ad5b 92bc 8d7a 303c 1024 843b 269c f13a
00000190: cdf4 2fbc bdf7 5e3c 041a 2ebc 709f 94bb
000001a0: 364d 963b 65ec 4e3c 67da 923c f206 acb9
000001b0: 94d6 363c 30e0 8d3c 164f 9cbb b3c7 a1bb
000001c0: 420f 24bc 153d 8f3b 4079 f63b 8a59 f4bb
000001d0: 0a97 adbb 79a7 84bc feb2 f0bb 953b 733c
000001e0: a2c8 78bb 9b3b 6ebc 2bd6 a53b 60d9 b1bb
000001f0: 5eb4 e2bb 85c1 5fbc beb7 123c a640 493c
00000200: 3b43 2f3c e8e8 193c d72a 4d3b 99bc 183b
00000210: 3a89 0e3c fc19 e4ba a043 563c 2b1c 913b
00000220: 0e6e 433c c195 3f3b 40d5 38bc 9c5c 1cbc
00000230: b72d bbbb 78e0 d73b 65a4 883c cf99 d23b
00000240: 5cf4 163c c465 a9ba 0242 3c3b c8ae 113c
00000250: 0548 dfba b8f8 2e3b 9012 83bb 532c 4a3c
00000260: 4e67 cdbb d07f 8a3c 2ca5 e8bb 9c8e 38bc
00000270: 2954 823b 8787 bf3b 5082 b43a 279d 7d3a
00000280: 1335 47bb 04e6 aebb 4f38 ee3b e5f6 993a
00000290: 1c79 37bc 491e 603c a7a8 db38 88a4 203c
000002a0: 6c8c cebb b2d7 1f3c 9975 03bc 3464 013c
000002b0: 601d 58bc d707 c6ba 52b2 493c c576 0abc
000002c0: e4bf 1f3c c077 52bc 66fc 07bb 4e41 96bb
000002d0: 58bc 29bc c354 713b be33 b33b ef07 cd3a
000002e0: 379f 35bc 0a0f 3f3c 2b8d c3ba d04e 35bb
000002f0: 863e a0bb b259 8dbc b4d9 013c 9995 583b
00000300: ef5d 3739 a97f 36bb 3c32 ccbb d88d 293c
00000310: 4d56 a3bb 7b70 6cbc 7cc2 04bc 49b5 783c
00000320: 3059 58bc fdce 1b3b 4460 193b 128a 10bc
00000330: 303d 8f3c a8d6 043c 593b f9bb 8c16 4d38
00000340: c101 253c 0ab4 813b 143d 11bb 1271 e5bb
00000350: 2f35 88bc f09a 95bc 70f8 8c3b d0e8 333a
00000360: e54e 8cbb 6921 6dbb 18fa 74bb fc0a 293c
00000370: 41bd b0bb aa8b 46bc 6179 89bb 4b15 393c
00000380: 8976 89bc 2cc4 743c f4b3 9f3b 6619 4f3c
00000390: 9bc4 7dba ae2d 52bb 11b2 11bc 59d5 1dbc
000003a0: 2fcb 4ebc 29a9 343b 8fa6 8f3b d61f 1e3b
000003b0: 531e 2d3b 5377 69bc 3c3e 68bc d409 e43a
000003c0: da43 06bc 9840 85bc fc5d 323b 08e1 803c
000003d0: 12bf b6bb ea68 5d3c 1b4d 1cbc 2dac a33b
000003e0: 24d8 5ebc 20a6 c9ba 39cc 95bb 1d92 1bbb
000003f0: b2f4 0c3c 5b04 063b d4b1 20bc 4edb 3fbb
-0.009843472 -0.0009491769 0.008394002 -0.01965043 -0.0012788842 -0.0028453579 0.008149836 -0.0033398531
-0.0006873315 0.0046959487 0.0026735805 0.003394336 0.008971488 0.0009815316 -0.003469081 0.009015598
0.0060932846 0.0043019573 0.007845203 0.009138063 0.010053215 -0.006127043 -0.0021388787 -0.011295597
0.002372818 -0.01755021 0.011375532 -0.0036136457 -0.015874535 0.0028710337 0.014558628 0.00026802963
0.008982759 0.0012904033 -0.008620238 -0.008351482 -0.017660284 -0.007538013 -0.0040690238 0.001607385
-0.0024181441 0.00029380864 0.007609557 -0.002223581 0.0018828587 -0.00517695 0.004341026 0.013318152
0.008853237 0.008877027 -0.004273131 0.009265092 -0.018624147 0.0008337126 -0.00023889064 0.0016777735
-0.015590649 0.0022198418 0.008544978 -0.00018608493 0.0025077914 0.010528558 -0.01050215 -0.014448768
-0.0038466991 0.009253636 -0.00954533 -0.002859779 0.011458951 -0.0072694058 0.0028403134 -0.0017717856
0.009005757 -0.005085701 -0.00015323877 -0.004032341 0.010279008 0.00017867747 0.004434565 0.005574597
-0.007289283 0.0017673091 0.018424667 0.013199092 0.005367967 0.0024202033 -0.010307682 0.011387801
0.0013525999 -0.010047927 0.011510919 -0.004995923 -0.01114176 0.00060478447 -0.008205896 0.010195428
-0.01786598 0.010771406 0.0040326193 0.0018433377 -0.010739517 0.01360887 -0.01062632 -0.004535608
0.004586841 0.012629603 0.017926408 -0.0003281157 0.011159558 0.017318815 -0.00477017 -0.004937136
-0.010013403 0.004371295 0.0075217783 -0.007456963 -0.0052975463 -0.016193138 -0.0073455563 0.014845748
-0.0037961383 -0.014540578 0.005060931 -0.0054275244 -0.006918474 -0.0136569785 0.00895494 0.01228348
0.010697181 0.009393908 0.0031306052 0.0023305772 0.00869971 -0.0017402763 0.0130776465 0.0044284067
0.011928095 0.0029233547 -0.0112813115 -0.009543564 -0.0057122367 0.006588038 0.016679952 0.006427027
0.009213533 -0.0012924005 0.0028725867 0.008891769 -0.0017035013 0.002669854 -0.0040000156 0.012339669
-0.0062684184 0.016906649 -0.007099768 -0.0112644695 0.003977318 0.0058450135 0.0013771746 0.00096746016
-0.0030396625 -0.0053374786 0.007269896 0.0011746554 -0.011198308 0.013679096 0.00010474148 0.009804852
-0.0063033607 0.009756016 -0.008023643 0.007897425 -0.013190597 -0.0015108538 0.012310581 -0.008451168
0.00975034 -0.012845933 -0.0020749806 -0.0045854216 -0.010359846 0.0036824204 0.0054688146 0.0015642623
-0.011085323 0.0116613 -0.0014919391 -0.0027665384 -0.004890266 -0.017254684 0.00792544 0.0033048152
0.00017487233 -0.0027847087 -0.0062315743 0.01034876 -0.004984653 -0.014431114 -0.008103009 0.0151799405
-0.013204858 0.0023774498 0.0023403326 -0.008821981 0.017485231 0.008107819 -0.0076059517 4.8896807e-05
0.010071219 0.00395823 -0.002216165 -0.0070020044 -0.016626922 -0.018262357 0.004302077 0.0006863
-0.004281866 -0.0036183244 -0.0037380513 0.01031756 -0.0053936546 -0.012118259 -0.0041953777 0.011296581
-0.016780155 0.014939349 0.004873747 0.012640333 -0.00096804806 -0.0032070684 -0.008892552 -0.009633386
-0.012621685 0.0027566648 0.004383869 0.0024127862 0.002641578 -0.0142496405 -0.014174994 0.0017397949
-0.008194888 -0.016266152 0.0027216664 0.015732303 -0.0055769766 0.013513783 -0.009539868 0.00499489
-0.013601337 -0.0015384592 -0.0045714644 -0.0023738213 0.008603262 0.0020449373 -0.0098080225 -0.0029275003
